dl_w_pytorch/convolutional-neural-networks/cifar-cnn/model_cifar.pt (torch, 156559 bytes, 8 tensors)

conv1.weight f4 [16, 3, 3, 3]
00000000: d723 e53c 8b05 b23e cc7f c73e b30a d5bd
00000010: d7b1 763e f93f 1abe 73ec 853d 1445 9bbd
00000020: bb78 1fbe 7853 b1be 7ade 3b3e e9e6 ec3d
00000030: 4302 e6be d184 133e 47f3 b53e ddc1 52bb
00000040: b8d7 81bd c555 c03e 9eb8 1fbf 0de7 66bd
00000050: 5adf 073d 8974 f3be 332c 363e c834 5fbe
00000060: 1f7b 843d a9e4 7fbe 15bc bbbe 5df0 813d
00000070: a062 4e3e 648b 4d3d 2476 033e 9daf 7c3c
00000080: c854 b0bd 4171 72bd 14ae 773e 60b7 383e
00000090: ead4 363d 2bba 043e 76dc e5bc b2e4 243d
000000a0: 3aec 823d fe6e ec3a 1c12 b0bd 99c3 febd
000000b0: 88bc 413e 17f9 6dbd 4104 3bbe 71ad 4fbe
000000c0: 3349 363c 9000 a63d 346b a33d ca29 e03d
000000d0: 9bbb 41be 54cd 36be 4b37 373e 66ef ba3e
000000e0: f31f d03e 7925 d2bd 6452 69be ca6c 83be
000000f0: ca4b 46be ed4f 8ebe 2f81 48be aad3 0e3e
00000100: 7928 e03e 2245 f63e 93fd ce3d afba 07be
00000110: b1a2 02bf 1c0e 3cbe 9261 7dbe 6140 84be
00000120: 2b16 21be 24b0 e2bb cc03 a63e 10ee 083c
00000130: 78b2 793c 182c 79bd 55b7 a8ba caae df3c
00000140: de9c 76be 8c2e bc3e c7dc c13e 9f7c a73e
00000150: 9eda ff3e d538 d43e 8058 d93e 7af3 533d
00000160: 5e59 053e 074c 08bf d2bf bcbe 8dac ffbe
00000170: 058b 19bf 3de3 4fbc a990 afbe 62e6 34be
00000180: e012 673d 4ec3 09bd 595e f9be cf0d b8bd
00000190: 2478 aebd ffda 6abd e634 0cbe eb65 a5be
000001a0: d3c4 8ebe e3f3 913e cb24 ccbb 0cc0 85bc
000001b0: 462a 0d3e deda dabd 3dd5 1abd 0023 093e
000001c0: 54b0 8abd 946d acbd 9b7c 2a3d 8b02 a9bc
000001d0: 9939 a63d 77e7 9a3c 1146 acbd 678d a43d
000001e0: 8709 a5bc 28c5 353e 6933 f6bd 9670 4dbe
000001f0: 8642 253e 8e63 27be bac1 1abd 369c 603d
00000200: 030e 963d de43 cabd 3853 743b 13b7 0c3e
00000210: 2398 dd3d c8f1 3abe 7f7e 183e 8451 81bd
00000220: a123 813d b67a 053e c2e8 623d da3c cd3c
00000230: fd8c df3c 5c00 5ebd 76bb f63d 9563 563d
00000240: f664 303d 1309 133e 43c5 a7bd 108c 943d
00000250: b8c8 b5bd 0a47 09be bf86 373d 3225 58bd
00000260: c597 dabc 4425 ccbd 7817 6b3d ca3e c73c
00000270: 9d26 1ebe f258 36bd 73da 94bd 5a1e 9a3d
00000280: b869 86bd 52ca 303e d0c7 16bf 5c3f 83bd
00000290: 7045 de3d 9967 493d 40c5 7dbe 2332 e8be
000002a0: 18d9 743e f23d cc3e 3da0 aa3d bb89 01bf
000002b0: 179e 37be f021 adbd 3450 82be 5381 59be
000002c0: 5ecd f4bd 22a2 b73d 9f06 4e3e 9529 a13d
000002d0: b9fe 8ebe 52b8 be3d e9bb 103d d4f0 ce3c
000002e0: 09ae 1dbe c660 13bc 5391 923e b437 93bd
000002f0: ae79 943c e373 383e 66e1 303e 7b7e eabe
00000300: d49d e73c cc3e b6bd 0fd0 1bbe 58ce 31bd
00000310: ea43 9bbd d8c4 3ebe 6414 6e3e d79a 8a3d
00000320: 1895 1d3e 9479 973d bc38 0e3b 9de3 3c3d
00000330: f236 fb3d 3d23 38bd 07ac 423e aaf7 f3bd
00000340: a078 f6bd 701e 383e f689 54bd 543c 10be
00000350: 3ce1 1e3e 4e3b 94be 41e3 53be f0e6 193d
00000360: b2a4 e6bd e5ee c73c b080 0f3e e75f ae3d
00000370: 78eb 13be c74d dfbd a1c9 07be b150 903d
00000380: 77b2 fa3d fc4f c9bd 5823 173e 0711 4cbe
00000390: 3eed c03d 2315 973c 1fee 15bd 7a27 463d
000003a0: 55e6 0abd 442b 0a3d 1961 04be 6c33 443d
000003b0: 56ef 163e 0ed7 8a3d 230b ef3c 7c8e a9bd
000003c0: c1b3 ac3d b510 38be 12fd 933c 5ad3 e9bd
000003d0: d3cf 933c 0463 6d3d ca63 333d 4e85 4dbd
000003e0: aff4 db3b 0769 18bc 463b 16be 535c 3abc
000003f0: e5ec aabe 6b03 e3bd 8e5b 763e 32fd 51bd
0.027971191 0.34769854 0.3896469 -0.10402431 0.24091278 -0.15063466 0.0653924 -0.07581535
-0.15573399 -0.34633994 0.18346587 0.1156748 -0.449236 0.14406134 0.35537168 -0.0032159009
-0.06339973 0.37565437 -0.6239108 -0.05637269 0.03317199 -0.47549847 0.17790298 -0.21797478
0.06468796 -0.2498957 -0.36666933 0.06344674 0.2015481 0.05018176 0.12838036 0.015422729
-0.08609921 -0.05919004 0.241875 0.18038702 0.044636644 0.12961642 -0.028059226 0.040257163
0.06392713 0.0018038449 -0.08597204 -0.12439651 0.18919575 -0.05809888 -0.18263341 -0.20281006
0.0111258505 0.08105576 0.07979432 0.10945471 -0.18919222 -0.17851764 0.17892186 0.36510772
0.40649375 -0.102610536 -0.22785336 -0.25668937 -0.19364849 -0.27795354 -0.1958053 0.13947931
0.43780878 0.4809962 0.10106959 -0.13254808 -0.510295 -0.18364757 -0.24744251 -0.25830367
-0.15731113 -0.0069179703 0.32424772 0.00835754 0.015240304 -0.060833067 -0.001287202 0.027305026
-0.24083278 0.36754262 0.37863752 0.32712266 0.4997148 0.4144961 0.42450333 0.05174587
0.13022372 -0.5324101 -0.36865097 -0.49936333 -0.5997775 -0.012688455 -0.34290054 -0.17666009
0.056414485 -0.033633523 -0.48704794 -0.08987009 -0.08519009 -0.057337757 -0.13692054 -0.3230432
-0.2788454 0.28506383 -0.006229972 -0.016326927 0.13785657 -0.10686277 -0.037801016 0.13392258
-0.06771913 -0.08419338 0.04162274 -0.020631095 0.08116455 0.0189092 -0.084118016 0.08034783
-0.020146145 0.1775099 -0.120215245 -0.2006248 0.16138658 -0.16346571 -0.03778241 0.054836474
0.07326891 -0.09876226 0.0037281048 0.13741712 0.108200334 -0.18256295 0.14892004 -0.06314376
0.06305624 0.13035092 0.055397756 0.02505343 0.027288908 -0.05419956 0.12047474 0.052341063
0.043065034 0.1435893 -0.081919216 0.07253277 -0.08876175 -0.13406006 0.04480624 -0.052769847
-0.026683697 -0.09968045 0.05739543 0.024321932 -0.15444417 -0.04451842 -0.072682284 0.0752532
-0.06563133 0.17264679 -0.5889864 -0.06408569 0.10853088 0.049171064 -0.24782276 -0.4535075
0.2391094 0.3989101 0.08331344 -0.50600785 -0.179314 -0.08453739 -0.25451815 -0.2124074
-0.11953233 0.08966471 0.20119713 0.07869259 -0.27928713 0.093125 0.035335455 0.02526132
-0.1539842 -0.008995241 0.286265 -0.07188359 0.018124428 0.18012957 0.17273483 -0.45799622
0.0282735 -0.08898696 -0.15216087 -0.043409675 -0.07581313 -0.18629777 0.23249966 0.067678146
0.15388906 0.07396236 0.0021701297 0.046115506 0.12266339 -0.04495548 0.19010936 -0.119124725
-0.12034726 0.17980361 -0.051889382 -0.14085513 0.15515608 -0.28951496 -0.20692159 0.037573755
-0.11261882 0.024405906 0.14013934 0.08514386 -0.14445293 -0.10903507 -0.13260509 0.07046641
0.12241071 -0.09829709 0.14759576 -0.1992837 0.0942025 0.018442696 -0.036604043 0.04837749
-0.033911068 0.033732668 -0.12927665 0.047900602 0.14739737 0.067793 0.029180115 -0.0827913
0.08432723 -0.17975123 0.01806501 -0.11417265 0.018043434 0.057955757 0.04379634 -0.050175957
0.006712518 -0.009302384 -0.14671049 -0.011374551 -0.3338386 -0.11084636 0.24058363 -0.051266856

conv1.bias f4 [16]
00000000: 173c 5bbe f946 98bf 316e debe 1c39 95bf
00000010: 9f68 06bf 7a2e 24bf b74f 96bf 72d0 9bbf
00000020: ea9f febe 5f93 8fbf b7c7 96bf d227 8abf
00000030: 905c 25bf d81e 5dbf 1cd1 d6bf e597 6bbf
-0.21409641 -1.1896659 -0.43443444 -1.1658053 -0.5250339 -0.6413342 -1.1743077 -1.2172987
-0.4973138 -1.1216849 -1.1779698 -1.0793402 -0.64594364 -0.8637519 -1.6782565 -0.9202865

conv2.weight f4 [32, 16, 3, 3]
00000000: a0eb 963c 350b 19bf 6d42 5b3e d78f 52bc
00000010: fa17 46be 8f7e 733e 4d03 f5bd bac7 83be
00000020: 68e2 993d 01f2 86be abcc 19be f1fb 5abe
00000030: af65 93be 069d 97be 44e3 cfbd 65fd e3be
00000040: 661c 04bf 4386 c5be 7c6c 13be dd66 95be
00000050: 3d44 53bf 68c4 58be bda9 a2be a4d5 21bf
00000060: 7adf 8abe e9b6 98be bd80 d8be da68 4ebe
00000070: a8b9 8d3e 2e91 16bf 6125 00be ddc4 283e
00000080: 6b32 17bc 3854 6bbe bb97 e8bd 81d1 d4bd
00000090: 1098 e1bd f121 63be b5d6 93be 5790 96bc
000000a0: df52 18be 035f 523b 8d8c 25bd 5c46 223d
000000b0: f4f1 02bd 2a12 b2bc ed17 c9bc b85f 5f3d
000000c0: 3c8c 823c 018a ca3c d9d3 b5bd 7757 17bd
000000d0: e358 203e b173 47be 4560 e0bd 2126 c13d
000000e0: 7d8d a9be 9e47 60bf 4ff0 a0be 2495 c6be
000000f0: c9dd 35bf 3c0c b4be d4ef e0be 2490 023e
00000100: 445a cb3d 16af aebe ec9d 69be 524d 69be
00000110: 8c24 0cbf 1f3f 3cbf 1be4 2a3e d6ff 4ebe
00000120: 9fc4 b2bd ca00 8d3b 990d d2bd 0934 21be
00000130: 1904 91bd 7909 193b 268a a5bd cd72 a1be
00000140: 6d6b dbbd 0836 d6be 2bf9 1d3e 08cf 4dbe
00000150: 101e aabe d85a 53be 996a b8be 0235 24bf
00000160: 2e88 71bf 1a68 dcbe 44e5 15bf f656 09be
00000170: efd9 e63b ca0a c4be 2a3d f0be b74a adbd
00000180: dab4 5e3e ebf3 20be 3a12 f03e 0516 09be
00000190: cbae fbbc d598 dabe 80a2 52bd 0a41 03bd
000001a0: 49cb 31be 479f 34be 258e 11be 6eef 84be
000001b0: 8ed2 7e3d 61fa d73c 55c3 f23d fd86 283e
000001c0: bc57 773d f2d7 1c3e 0605 8b3d 7279 cb3d
000001d0: 4112 4f3e 7aa2 87be 356d 63be 6263 133e
000001e0: e691 1a3e 9b29 e9bd b715 ec3c 0288 70bd
000001f0: 2203 1abf bd2d d8be 36ed 3cbf 7f7f 083e
00000200: 458a 1fbf ac33 fa3d e361 dd3a 6cd8 ffbe
00000210: 5168 64be 6980 753e 8b44 f8be 84f9 22be
00000220: e75a bcbd 91e1 ee3d a328 9abc 37f6 c4bd
00000230: 17bc 07bd 06bd 8bbe 3935 b5be 548e b6be
00000240: 833c 6f3d 7ee3 903d d529 57be e949 a0be
00000250: dfb5 c7be 176d 4abe 241c 09be 24d0 6d3d
00000260: 916a 1d3d f99f 80be 2a1c 5bbe 96be cabd
00000270: d2ec 02bf 2fe3 4abf ad48 2cbf a8ab b8bc
00000280: 66fd a7be 2c2e cf3c e5bf a83d 49d2 473e
00000290: f6e8 263c ae23 8d3d 09ae c6be 49dd 92bd
000002a0: ae1e 4a3e ea1f 2cbd 3d04 033e a86d b9be
000002b0: dc7e b1be 7a27 f5be 32da 53be 7a50 03bd
000002c0: 3487 9ebe 92f9 dd3e 0783 9b3e fc4a 503e
000002d0: f3f2 7a39 f00b b0bc 19cb 31bd afde 74bd
000002e0: 4b95 36be 5eaa aabd 0ecf 33bc 48a7 c43c
000002f0: 2fe5 a33d e396 dabd 00be 3cbe ef8f 77be
00000300: e58a 14be 1559 98be cf58 96bd cff9 dabd
00000310: 3dee 0abd b13a babd 34da 68bd e262 143e
00000320: f0ad 003e 0cd2 833e 43a7 8abe 0a8e bdbd
00000330: 942d f2bd ca07 59bf ad00 45bf 6fed 4fbe
00000340: 5274 d03e bd13 003f b89a 01be c6fb 79be
00000350: f85c 8c3e 5de2 8f3d c46e aebd 3cb2 8dbc
00000360: c733 c5bd b237 dd3c 4f2b 9fbd b423 b93d
00000370: 486f e3bd 142f 08be e6b4 c63c f7e0 bbbc
00000380: ae05 edbd 2a12 f6bd 8e5d 2b3d 2146 823d
00000390: ba1e 463d 6dfd 14bf b7e3 c0be 9e62 473d
000003a0: 0b64 ffbc c95d 723d 3df5 12be 66fa dabd
000003b0: 7045 57be 3149 3b3e 8c1f 3abd b524 84be
000003c0: ec6d 623e 8b17 373b 9e15 153e 5daf 2bbe
000003d0: f3b1 07be 6ef0 4cbd 5021 a1be e094 d3bd
000003e0: de35 5abe 563f 70bc 2862 7abc 1c51 ae3b
000003f0: 9605 51be d550 f9bd f045 e8bd a42f 89bd
0.018422902 -0.59782726 0.21412058 -0.012851677 -0.19345084 0.23778747 -0.1196352 -0.25738317
0.07513887 -0.2635651 -0.15019481 -0.2138517 -0.28788516 -0.29611987 -0.10150769 -0.44529262
-0.5160583 -0.38578996 -0.14396852 -0.2918004 -0.82526 -0.21168673 -0.31770125 -0.63216615
-0.27123624 -0.2982705 -0.4228572 -0.20157185 0.27680707 -0.58815277 -0.12514259 0.16481347
-0.009228329 -0.22981346 -0.11357065 -0.10391522 -0.11015332 -0.22180916 -0.28874746 -0.018379373
-0.14875363 0.0032100088 -0.040417243 0.03961788 -0.031969026 -0.021737177 -0.024547542 0.054534644
0.01593601 0.024724009 -0.08878297 -0.036948647 0.15658908 -0.19477727 -0.10955862 0.09431101
-0.3311576 -0.8760928 -0.3143334 -0.3878566 -0.7104154 -0.35165584 -0.43932974 0.12750298
0.09929326 -0.34117955 -0.22814149 -0.22783402 -0.54743266 -0.73533815 0.16688578 -0.20214781
-0.08728909 0.0043030726 -0.102565 -0.15742506 -0.0708086 0.0023351593 -0.0808299 -0.315329
-0.10713849 -0.41838098 0.15427081 -0.20098507 -0.3322606 -0.20640123 -0.36018828 -0.64143384
-0.9434842 -0.43048173 -0.58552957 -0.13412079 0.0070450227 -0.3828948 -0.46921664 -0.08461516
0.21748677 -0.15718047 0.46888906 -0.13387306 -0.030722996 -0.42694727 -0.051424503 -0.032044448
-0.17362703 -0.17638884 -0.1421438 -0.2596392 0.06221252 0.026364507 0.11853663 0.16457744
0.060386404 0.15316752 0.067880675 0.09935273 0.20221807 -0.26491147 -0.22209628 0.1439338
0.15094718 -0.11384889 0.028818948 -0.058723457 -0.6016103 -0.42222396 -0.73799455 0.13329886
-0.6232036 0.12216887 0.0016890134 -0.49969804 -0.22305419 0.23974766 -0.48489794 -0.15915495
-0.09197026 0.11664117 -0.018818205 -0.09617274 -0.03313836 -0.2729265 -0.35392168 -0.35655463
0.058407318 0.07074641 -0.21012051 -0.3130639 -0.39005944 -0.19768177 -0.13389641 0.058059826
0.038431708 -0.2512205 -0.21397462 -0.09899633 -0.5114261 -0.79252905 -0.67298394 -0.02254279
-0.32810515 0.025290571 0.08239726 0.19513811 0.010187378 0.06891571 -0.38804653 -0.07171113
0.19738266 -0.042022623 0.12794586 -0.36216474 -0.346671 -0.4788168 -0.20688704 -0.03205917
-0.30962527 0.4335447 0.30373403 0.20341104 0.00023932364 -0.021490067 -0.04340658 -0.05978268
-0.17830388 -0.08333276 -0.010974659 0.024005547 0.08002698 -0.106733106 -0.18431854 -0.24176
-0.14506109 -0.29755464 -0.07341158 -0.106921785 -0.033918608 -0.09093226 -0.05684872 0.14490846
0.12566352 0.2574619 -0.27080736 -0.092556074 -0.118250996 -0.8477751 -0.76954156 -0.20305417
0.40713745 0.5003012 -0.12656677 -0.2441245 0.2741468 0.07025597 -0.085172206 -0.017296903
-0.09629016 0.027004097 -0.07771932 0.09040013 -0.111052096 -0.13299209 0.024256181 -0.02293442
-0.11573349 -0.12015183 0.041837268 0.06361032 0.048369147 -0.581992 -0.37673733 0.048678033
-0.031175634 0.05917147 -0.14351363 -0.10692291 -0.21022582 0.18289639 -0.04544024 -0.25809255
0.22112244 0.0027937617 0.14559028 -0.16766115 -0.13251476 -0.05003398 -0.31470728 -0.1033113
-0.21309611 -0.014663538 -0.015282191 0.0053197276 -0.20412287 -0.121736206 -0.113414645 -0.0669854

conv2.bias f4 [32]
00000000: cd7e 12bd 4d24 e7bc 0360 b4bd 131b 08be
00000010: 701c b1be 2682 03bd 18e9 98bd 46ac 9bbd
00000020: 413f 25be d438 0e3e aed3 42bc d29d 0bbe
00000030: bf67 18bf f207 6dbc 5dd6 12be b20b 1fbd
00000040: 54fd 48be 1ce8 d0be eb31 f5bd b11d 73be
00000050: 58fc 99be 7a79 e8be deb4 e9bd f445 973c
00000060: 6ac9 86be cd6b a3be aa4d 27be 417a 12be
00000070: 950a 84be 5678 13bf b3b8 e3bd 34b5 5ebe
-0.035765458 -0.028215552 -0.08807375 -0.13291578 -0.3459201 -0.03210654 -0.07466334 -0.07601218
-0.1613741 0.13888866 -0.011891289 -0.13634422 -0.59533304 -0.014467226 -0.14339586 -0.038829513
-0.19627887 -0.40802085 -0.11972412 -0.23741795 -0.30075336 -0.4540518 -0.11411451 0.018465973
-0.26325542 -0.31918183 -0.1633822 -0.14304449 -0.25789323 -0.57605493 -0.11119213 -0.21748811

fc1.weight f4 [64, 512]
00000000: a464 833e e443 383e 0c37 643d 92eb ea3e
00000010: 61a6 3b3e e94a 9a3e 6bd8 4d3e bb6d aa3e
00000020: da5c 3fbe 00ad 00be 6ddc a73d a625 1fbe
00000030: 3909 9bbe 5207 7fbd ac91 fabd 763d 1bbe
00000040: 1c4c ce3d 324a 23bd 13a0 07bc 5d98 7f3e
00000050: 9b9d 783e de7c 0b3d 32a3 2b3d 6d9d 523d
00000060: 38d2 6a3e 4ac9 febd 9051 1cbe 6fd6 87bd
00000070: 9fef 1b3e 3b7d 943d 6d6a f73d 000c 8b3e
00000080: ab5b c63d 391b 1bbc 0fa2 ae3d bcd4 f6bb
00000090: 9c53 203d 8c47 21bd a321 9e3c 576b 623c
000000a0: 9190 063d 3121 6d3d e0d1 d2bd a5da 193d
000000b0: 2a90 953d 5a5d 623d ecf5 a13b 50c4 693d
000000c0: f87a 703d af46 823d 1272 4f3d 8773 ea3d
000000d0: 4d9f aa3d 1c2b 3e3d 3222 653d 1e1c 163d
000000e0: 709e 823d 1b03 d03d 9a3d 133d 3d73 993d
000000f0: b2a6 1f3d 5ad9 603d cffb 7e3d 4720 933d
00000100: d163 a3bd 9978 613e 1644 fc3e 5900 f03e
00000110: a186 b3bd e9fa 503e 1df5 bb3c 23a3 eb3e
00000120: 5dde 71bd 1d30 fe3e 7f05 1c3e f0c7 cc3e
00000130: d222 56be 9b38 06be ff61 4bbe 7888 aabe
00000140: 7f03 6f3d 0d93 7ebb 136d 3f3c c8f2 5ebd
00000150: 851b a83d c235 1a3d bd70 383d be69 bc3c
00000160: 567d 873d bbba 913d 3d01 c13d 0913 823d
00000170: 40eb 243d 88e8 353d b48a 883d f4ac 633d
00000180: 7eba 7cbd 984f f13a 3c62 5dbd f613 9f3c
00000190: 3351 843c e9d2 d6bc 843e 603c 5994 003d
000001a0: 4d35 83bc 6968 f2bc ad7c 10bd ca01 13bc
000001b0: c08e 1abd 25d4 cfbc 0696 8bbd f2c2 fc3a
000001c0: f7be 413d fa86 563c 03fa c83b a615 503d
000001d0: df00 ab3c 2f73 1cbd 3462 6fbd 38dd 0ebd
000001e0: 2253 433d a48f 6bbd bc06 35bd 940c e13c
000001f0: 7b29 b3bc dfe3 2a3d 4cbc 223c 1b49 a33c
00000200: 48ec d8bd 0e6c 0dbd 79ed ae3d ce26 093a
00000210: d2c7 143b 56d3 95bd 6073 7e3c 6141 c3bc
00000220: 59d4 94bc 3546 323c c8e9 853c 831b bbba
00000230: 1a6e 6abb e33f 92bd a5f8 9b3d d509 983d
00000240: f1f3 ae3d 4578 90bd d05f 043f 46af ab3e
00000250: 2a78 103f 2f57 013f 3f58 c63e 5e13 673e
00000260: 7843 6fbb d508 40bd 31b0 2fbe 90c5 42bb
00000270: 0c66 32be 51db 9abd f443 8f3d c6cb 13bf
00000280: 8db9 493e e2f6 993c a12d 86be 8e7d 973e
00000290: 3afe 49be 2486 27bc dde4 3e3d 0ddb f33d
000002a0: dd61 013e 7211 273e dfd6 00bf fea5 0bbf
000002b0: ce9a 0bbe 9e8a 81bf bf79 90be 9f2b e9be
000002c0: 72da 223d 1c16 bd3d 1a6b 7d3d 021f ac3d
000002d0: 53e5 ee3d 3e18 06bd 9e19 253d 619e a73d
000002e0: 617d a43d 80d1 b43c 2bed 053b eb24 373d
000002f0: b8e5 01be 237b 67bd ebac 903d 8ce5 953c
00000300: 1b13 c6bd f182 bd3e 5eb3 ae3e c7d0 843e
00000310: df21 21bd 0439 0ebc d170 20bd cc8f 0f3c
00000320: e277 733b 3368 05bb fc1d a83d a95d a3bd
00000330: 2cf4 c6bd 2208 fabd 1054 9abc 4f2f b8bd
00000340: 90e4 31be c770 88be 7bd6 24be 729b 773d
00000350: 8fef 8fbe 459e b8be 847a ef3d 2a06 4cbe
00000360: 3768 38bd 0e25 ef3d 6f5b 70be 7356 92bd
00000370: 187f 81be f6b1 143e ce2d 30bd 3e13 4e3d
00000380: 89ef 54bd 32f0 9c3d b136 c5bb 1b0f 373c
00000390: 5845 30bd 83ef 623d 48d1 5b3d 4a59 9e3d
000003a0: 1bdd 83bd b30b 01be 41bd 383d 8de5 383d
000003b0: e074 b9bd 5acb a9bd 7ba7 52bd 54fa 8f3d
000003c0: 16b8 0fbd c860 a43d 94a2 133d 5b0d e43c
000003d0: 8869 973d 7641 e53c 069e 2c3d 4b73 903d
000003e0: 6aaa 4f3c e4a4 9a3c 0ca8 9f3d 0b27 113e
000003f0: d7bc c13d 0c7e 1d3d 0228 0c3d fd3b 433c
0.2566272 0.17994648 0.05571656 0.4588285 0.18325187 0.30135277 0.20102088 0.33286843
-0.18687764 -0.12565994 0.0819634 -0.15541705 -0.30280474 -0.06226284 -0.12234816 -0.15160164
0.100731105 -0.03986568 -0.008277911 0.24960466 0.24278872 0.03405463 0.041903682 0.051419664
0.22931755 -0.124407366 -0.15265489 -0.06632697 0.15228127 0.07250448 0.12080846 0.27157593
0.09685453 -0.00946694 0.08527004 -0.007532684 0.039142236 -0.039374873 0.019303149 0.013819537
0.032852713 0.057892982 -0.10293937 0.03756203 0.07302888 0.05526481 0.0049426463 0.057071984
0.058711022 0.06361138 0.050645895 0.11447816 0.083311655 0.04642783 0.055940814 0.03664791
0.06377876 0.10156842 0.03594742 0.07492683 0.038977332 0.054894783 0.062251862 0.07183891
-0.07978023 0.2201866 0.49270695 0.46875265 -0.08765913 0.20408215 0.022944028 0.460229
-0.059049953 0.49646083 0.15236472 0.3999629 -0.2091172 -0.13107531 -0.19861601 -0.33307242
0.058352944 -0.0038844973 0.01168372 -0.054430753 0.08208374 0.037648924 0.04502939 0.02299964
0.06615703 0.07115694 0.09424064 0.06351287 0.040263414 0.044411212 0.066670805 0.055584863
-0.06170129 0.0018410562 -0.05404876 0.019418698 0.016152 -0.026223617 0.01368678 0.031391475
-0.016016627 -0.029590802 -0.03527515 -0.0089725945 -0.037733793 -0.025369713 -0.06815724 0.0019284172
0.04730126 0.013093704 0.0061333193 0.050801896 0.020874439 -0.038195785 -0.058443263 -0.03487894
0.047686704 -0.057510033 -0.044195876 0.027471818 -0.021870365 0.04172122 0.009932589 0.01993232
-0.10591942 -0.034526877 0.08541388 0.00052319176 0.002270211 -0.073157 0.015530437 -0.023834886
-0.018167662 0.0108809965 0.016346827 -0.0014275167 -0.0035771192 -0.07141092 0.076157846 0.0742375
0.08542622 -0.070541896 0.517087 0.3353216 0.56433356 0.50523657 0.387392 0.22565982
-0.003650872 -0.046883423 -0.17157055 -0.0029719807 -0.1742174 -0.075613625 0.06995383 -0.5773281
0.19699688 0.01879448 -0.26206687 0.29587978 -0.19725886 -0.010224853 0.04660498 0.11907015
0.12634988 0.16315249 -0.5032787 -0.5455016 -0.13633272 -1.0120428 -0.28217885 -0.45541093
0.039759107 0.09232733 0.061869718 0.08404352 0.11664834 -0.032737963 0.040307634 0.08184505
0.08031727 0.022072554 0.0020435553 0.044712942 -0.12685287 -0.056513917 0.070642315 0.018297933
-0.09671613 0.37013963 0.3412122 0.25940534 -0.039338943 -0.008680586 -0.03917009 0.008762311
0.0037150313 -0.0020356297 0.08208844 -0.07976849 -0.09714541 -0.122085825 -0.018838912 -0.089933984
-0.17372346 -0.26648542 -0.16097443 0.06045098 -0.28112456 -0.3605825 0.1169329 -0.19924226
-0.045021262 0.116769895 -0.23472379 -0.07145395 -0.25292277 0.14521012 -0.043012433 0.05031132
-0.05198625 0.07663001 -0.0060184826 0.011173035 -0.04303488 0.055404197 0.053666383 0.07731874
-0.06438657 -0.12602119 0.04510236 0.04514079 -0.09055495 -0.08290739 -0.051429253 0.07030168
-0.035087667 0.08026272 0.03604372 0.0278384 0.07393175 0.027985316 0.04214289 0.070532404
0.012674907 0.018877454 0.07795724 0.1417505 0.094598465 0.038450286 0.034217842 0.011916158

fc1.bias f4 [64]
00000000: cdee 74bd 90ea 3c3e cb74 35be 3baa 97be
00000010: 51bd a5bd 9278 ccbe 58a8 513c 6031 a0bd
00000020: 0313 883d fa41 9f3e 764e f03d 40ce 763e
00000030: 49e0 09be 4c5e 4d3d eb70 2abe 2fba 62be
00000040: 9ac6 343a 11ab c8bd 3076 973d be1d 78be
00000050: ca62 abbe f874 ba3c 2a7b 16be 2faf ed3d
00000060: d29e 1dbe 212f 2d3e ed1e 933c 4023 943e
00000070: 64f5 a33e d9c0 223d 4046 be3d 9c8e 82bd
00000080: 8951 67be 05b1 f63d 7b59 253e 02c8 423e
00000090: 62d0 77be a07f a9bd 0903 67be cc34 4e3e
000000a0: ee9f 73be ebdd 833e 5de6 9dbc 616d 993e
000000b0: aec0 ca3c c0e9 9e3e 0745 523e a422 ef3d
000000c0: 42aa eb3d 1ec2 aebe 2a41 24bd 393b c83e
000000d0: 6895 13be cb8a b3be e120 8cbe 327d 09bd
000000e0: b63e 473c 8d66 e73d c8d0 b2be 56c4 c2bc
000000f0: c52f 373e cae7 01be c6d4 3d3e 627c e13b
-0.05979805 0.18448853 -0.17720334 -0.29622063 -0.0809275 -0.39935738 0.012796484 -0.078219175
0.06644251 0.31105024 0.11733715 0.24102116 -0.13464464 0.050138757 -0.16644637 -0.22141336
0.0006896049 -0.09798253 0.07395589 -0.24230096 -0.33473808 0.022760853 -0.14695421 0.11605679
-0.15392616 0.1691251 0.017959082 0.28933144 0.32023156 0.039734695 0.09290743 -0.06374857
-0.22589697 0.120454825 0.16147415 0.1902161 -0.24200585 -0.08276296 -0.22559752 0.20137328
-0.23791477 0.25755247 -0.019274885 0.29966262 0.02475008 0.31037712 0.20534144 0.11676529
0.115070835 -0.34132475 -0.040101208 0.39107683 -0.14412463 -0.35066828 -0.27368835 -0.03356666
0.012160948 0.11298857 -0.34924912 -0.02377526 0.17889316 -0.12686077 0.18538198 0.0068812827

fc2.weight f4 [10, 64]
00000000: 10a4 7a3c 7472 7cbe be71 013e f790 253e
00000010: 3ce9 aa3d 39e6 743e f98a 67be 1ac4 153e
00000020: 3a39 c6bd e800 5fbe e13e 2ebe e0a8 7fbe
00000030: abdc 183e ded3 9fbd 17bb f3ba 78aa f33c
00000040: e4de e3bd cd3b 43bd 6512 8d3d aa44 423e
00000050: bb03 363d c454 763d 056f 5a3e 79ee 87bd
00000060: b0dc 9ebd a3de 113e 97ba 72be 5d99 1abe
00000070: 4a7f 943d ef2a f53d 8627 f0bb e81b 8c3d
00000080: 21cd fb3d c27e ccbd 7ba9 483e 832c b0bd
00000090: d460 fe3d 65da 05bd ffee cfbd 516d 14be
000000a0: 714e 903e 3a18 9f3c 1b6a a43e 6579 a83d
000000b0: 4b7c 69bd 42f0 78bd 7c4d 6abe 3c2b dfbd
000000c0: abe1 30be 7416 3c3e 4735 883e 4ca4 0abd
000000d0: a3f3 bb3d 8c0c 26bd 506c febd 9648 673e
000000e0: 119a 183e a025 933d 4208 df3d 61f2 06bd
000000f0: 151f 123d 3833 de3c 8349 04be 33f3 0f3d
00000100: 7f03 913d 3057 1d3d e897 b83d 57be 80bd
00000110: 2246 a5bc 0335 303d d09c 063d 581d b13e
00000120: 2d04 cf3c e730 b9be 8675 32be c270 4e3e
00000130: a1ad 1bbe 7cbe 3d3e 7a86 92bc 51d7 343e
00000140: a323 3d3e 821f 873e 3c8d 9f3d 7ae4 2ebc
00000150: 868a a83d 4ef6 1e3e 5c6e 46bc 8038 5fbc
00000160: 53b8 9d3d 2aef 88be 0db2 a83e c449 44bd
00000170: 7335 57be 4c1c 4fbe 2d59 25bd 741a 00bd
00000180: 7078 013e 8c62 33be 807e a6bd ea3e 433e
00000190: 4e55 77bc 597c 653d c445 043e 1d86 7cbd
000001a0: 243b 3e3e 5e35 a23d ac0f 2d3e 5aef c8bb
000001b0: b1c8 ec3d d406 633e 1934 21be 2719 50be
000001c0: 3238 033e f202 993d b2d6 893c 1e3b 483e
000001d0: 9972 943e 33fc cf3c 4788 22be 6cb5 59bc
000001e0: 639f 8abd 4477 0cbe 58ba a3bd 64e5 ed3d
000001f0: 647b fd3d 57f8 abbe 48bf 36be 8c17 78bb
00000200: 9ee4 863d 7a27 c53c 3899 4ebc fe81 f3bc
00000210: 9c20 273e 9a23 84be 7d5d 85bd 7999 36be
00000220: 8c08 243d d200 7c3e ecb1 5c3d 3368 00be
00000230: a6e8 223c 5b9f c5bc 4b5c 79bd dc74 f63d
00000240: d27f 78be 5f66 a03d a961 853d 2227 403d
00000250: c100 06be 2876 8cbc 1a15 3f3e db02 a73d
00000260: 6e0c 3abe 69c3 d03d 6fcd f0bd 2038 b53d
00000270: 40f0 873d 2c28 e23d bbb6 8a3d 6a31 d9bd
00000280: 651f 193d 78ae b2bd d868 5c3e b100 51be
00000290: 1d4c 9cbd 21bc fbbd 94f1 4abe 72c3 0a3d
000002a0: f1b4 98be 5e20 0f3e e279 22be b8e4 703e
000002b0: f3f8 3abc 4459 69ba fbc0 1d3e 30b5 483e
000002c0: 5851 4dbd 45ed ca3d 2964 6a3d 75c6 823e
000002d0: 612c ab3d 6773 34be 5891 193d d34e 3e3e
000002e0: 3f2c 0e3d a29b a63d a8b5 56bc 6891 b6bd
000002f0: e401 fb3d 6eb0 a43d b87a 143e bcec 133e
00000300: abf8 b83b 4b85 39bd 39ef 063e c889 bc3b
00000310: 45ab 1dbe 33d9 29be c9fc 4f3d 4208 03be
00000320: 6694 753b 6c95 403e 05cc 013e 1b6d cc3c
00000330: 9a3c 5ebe d8fa 913b abf0 90bd 7d8c 2f3e
00000340: 5928 8ebc 5c7a 5bbe a923 723d 5748 9f3c
00000350: fee9 2bbc 11b5 053d 33f7 1b3e 392b afbd
00000360: a2ab e63d daa6 e93d 985e 8f3d b347 19be
00000370: 0eb6 c4bd 5d84 e23d 981f d73d 50d9 acbb
00000380: f8ff a0bd a039 a0bc c9be 56bd 6b96 d6bb
00000390: 569a cf3c b9a0 9dbd 4ea7 e2bd dcd3 aabd
000003a0: 51f3 c8bc a54b 22bc bdfe 34be 1dd1 48bd
000003b0: cddc 993d 15fc 14be 51ed f83d d3c8 c93e
000003c0: c629 c1bd af0b 02be 6e36 12bc 846e 2dbd
000003d0: 9149 31be 0292 9e3d 8219 923d 807b 64be
000003e0: 05dc c0bd f641 8b3d dbac 313e 4e06 db3d
000003f0: 4655 f83d c8d8 0cbd a41e bf3d f086 813d
0.015297905 -0.24653035 0.12641045 0.16168581 0.08345267 0.23915948 -0.22611608 0.14625588
-0.09678884 -0.2177769 -0.17016174 -0.24966764 0.14927928 -0.07804082 -0.0018595186 0.029744372
-0.111264974 -0.047664452 0.06888274 0.18971506 0.04443715 0.060139433 0.21331413 -0.06637282
-0.077569366 0.14245085 -0.23703991 -0.15097566 0.07250841 0.119710796 -0.0073289303 0.0684126
0.122949846 -0.09985115 0.19595902 -0.0860224 0.12420812 -0.03267898 -0.10153007 -0.14494826
0.28184846 0.019420732 0.32112202 0.08226279 -0.0570033 -0.060776003 -0.2288112 -0.10896918
-0.17273585 0.1836794 0.26603147 -0.033848092 0.091773294 -0.04053931 -0.12423003 0.22586283
0.14902522 0.07184911 0.10890247 -0.032945994 0.035674173 0.027124032 -0.12918667 0.035144042
0.07080745 0.038413227 0.09013349 -0.062863044 -0.020175043 0.043019306 0.03286439 0.345927
0.025270546 -0.36170122 -0.17427644 0.20160201 -0.15202953 0.18529695 -0.017886389 0.17660262
0.18470626 0.26391226 0.0779061 -0.01067459 0.08229546 0.15523645 -0.012111273 -0.0136243105
0.07701173 -0.26744968 0.32948342 -0.04792191 -0.21016483 -0.20225638 -0.040368248 -0.031275228
0.126436 -0.17518061 -0.08129597 0.19066969 -0.015096022 0.05602679 0.12917238 -0.061651338
0.18577248 0.07920335 0.1690051 -0.0061320486 0.11561716 0.22170573 -0.1574253 -0.20322095
0.12814406 0.07471265 0.016826008 0.19553801 0.2899368 0.025388813 -0.15872298 -0.013287883
-0.06768682 -0.13717371 -0.079945266 0.116160184 0.123770505 -0.33587906 -0.17846406 -0.0037855832
0.06586574 0.024066675 -0.012609772 -0.029725071 0.16321033 -0.25808412 -0.06511972 -0.17831983
0.040047213 0.24609688 0.053880617 -0.12539749 0.009943163 -0.024123838 -0.060879033 0.12034008
-0.2426751 0.07832026 0.06512768 0.04691232 -0.13086225 -0.017146185 0.18660393 0.081548415
-0.18168804 0.101935215 -0.11757933 0.088485956 0.06637621 0.110428184 0.06773134 -0.10605128
0.037383456 -0.087246835 0.2152437 -0.2041042 -0.07631705 -0.12291742 -0.19818717 0.033877797
-0.29825547 0.13977191 -0.15866807 0.2352475 -0.011411893 -0.0008901546 0.15405647 0.19600368
-0.050126404 0.09908537 0.057224426 0.25542036 0.08358074 -0.17622148 0.037492126 0.18584757
0.034710165 0.08135153 -0.013104834 -0.08914453 0.1225622 0.08041464 0.14499938 0.14445776
0.005644878 -0.045293134 0.13177194 0.0057537295 -0.15397365 -0.16586761 0.050778184 -0.12796119
0.0037472486 0.18807 0.12675484 0.02495437 -0.21702805 0.0044549517 -0.07077154 0.17143436
-0.017353224 -0.21433395 0.05911604 0.019443674 -0.0104928 0.03264338 0.15231018 -0.08553166
0.11263205 0.114087775 0.07000464 -0.14968757 -0.09605037 0.110604025 0.10504073 -0.005274929
-0.07861322 -0.019558728 -0.05242804 -0.006548693 0.025342148 -0.07696671 -0.11067067 -0.0834119
-0.024530085 -0.00990573 -0.176753 -0.04902755 0.075128175 -0.14549287 0.121546395 0.3941103
-0.09431796 -0.1269977 -0.00892411 -0.042341724 -0.1731322 0.077426925 0.071337715 -0.22312737
-0.094169654 0.067996904 0.17351095 0.10694562 0.121256396 -0.034386426 0.09332016 0.063245654

fc2.bias f4 [10]
00000000: 7ce8 4bbd afed 9cbe 43b6 ae3e 692d a43e
00000010: 7006 313d f355 ef3d c06d 13be dd00 e7bb
00000020: 63d4 bfbe 614c e0bd
-0.04978226 -0.30650088 0.3412343 0.32065895 0.04321903 0.116863154 -0.14397335 -0.0070496635
-0.37466726 -0.10952068
