dl_w_pytorch/convolutional-neural-networks/mnist-mlp/model.pt (torch, 942423 bytes, 6 tensors)

fc1.weight f4 [256, 784]
0	0xbbf35e24	-0.007426994
1	0x3d0efb95	0.034907896
2	0x3c2d22d0	0.010567382
3	0xbaa76000	-0.0012769699
4	0x3c126314	0.008934755
5	0xbc93efc0	-0.018058658
6	0xbd087fd3	-0.033325028
7	0x3ce32cae	0.027731266
8	0xbca140ee	-0.019684281
9	0x3c0db464	0.0086489655
10	0x3b674550	0.0035289116
11	0x39e6df80	0.0004403554
12	0xbc878945	-0.016544947
13	0xbcdc651a	-0.026903678
14	0xbc841923	-0.016125267
15	0x3cb62406	0.022233974
16	0x3c3e26c0	0.011605918
17	0xbb8e0c30	-0.004334949
18	0x3bf29720	0.0074032694
19	0x3c646228	0.013939418
20	0xbae92e20	-0.0017790236
21	0xbba4b430	-0.005026363
22	0xbc5471a0	-0.012966543
23	0xbcd6a2f8	-0.026200756
24	0x3c98ca0c	0.018651031
25	0x3cf9fd32	0.03051624
26	0xbbf1bef8	-0.0073775016
27	0xbaa834e0	-0.0012833141
28	0xbd11d5b7	-0.035604205
29	0x3ccf377c	0.025295012
30	0x3c9f737a	0.019464243
31	0x3cfa9a0e	0.030591037
32	0xbd0fc1fa	-0.0350971
33	0xbc38c446	-0.011277264
34	0x3c8bca54	0.017064251
35	0x3cc67130	0.024223894
36	0x3cc0d3d6	0.023538511
37	0x3c077afc	0.008269068
38	0xbb9bdd1a	-0.004756582
39	0xbb4045d6	-0.00293385
40	0xbc6588ae	-0.014009638
41	0xba74c5c0	-0.00093373284
42	0xbb186190	-0.002325151
43	0xbd75e0a1	-0.060028676
44	0xbcce6240	-0.025193334
45	0xbd0cf266	-0.034410857
46	0x3b8071b8	0.0039198063
47	0xbc642d2b	-0.0139267845
48	0x3c08541c	0.0083208345
49	0x3d3a008e	0.045410685
50	0xbc90188a	-0.017589826
51	0x3c20d7f8	0.009817116
52	0xbce5ef15	-0.028068105
53	0x3cec2dca	0.028830428
54	0x3cd6f1fe	0.026238438
55	0x3ca9fcaa	0.020750362
56	0xbc90fa35	-0.017697433
57	0x3c2ceb54	0.0105541535
58	0xbc80e263	-0.01573295
59	0x3c631a28	0.013861217
60	0xbc651172	-0.01398121
61	0xba321d80	-0.0006794557
62	0xbd09767e	-0.03356027
63	0xbd0fa0ec	-0.035065576
64	0x3cc4adca	0.02400865
65	0x3be032d8	0.0068419985
66	0x3e00f5c7	0.12593757
67	0x3d3caacf	0.046061333
68	0x3c866194	0.01640395
69	0xbdc8ce74	-0.09805003
70	0xbdcbdd0b	-0.0995427
71	0xbdd8a114	-0.10577598
72	0xbe11c53b	-0.14235394
73	0xbe002532	-0.12514189
74	0xbd667d26	-0.056271695
75	0xbbf305f5	-0.0074164816
76	0x3d082f1b	0.03324805
77	0x3dc6946c	0.09696278
78	0x3bfa0b60	0.0076307505
79	0x3c3a2c6e	0.011363132
80	0xbb584ea7	-0.0033005865
81	0xbc6c99e0	-0.0144409835
82	0x3cb1d970	0.021710128
83	0xbd029c0f	-0.03188711
84	0xbc9250ca	-0.017860789
85	0xbce6ec05	-0.028188715
86	0x3b9e4438	0.0048299097
87	0x3c3d46a8	0.01155249
88	0xbcc87010	-0.024467498
89	0xbdc9b30e	-0.09848605
90	0xbde3d397	-0.11124342
91	0xbc370035	-0.011169483
92	0xbe061176	-0.13092598
93	0xbd0c2a93	-0.03422029
94	0x3d8d7275	0.069065966
95	0xbc95b540	-0.018274903
96	0xbdf7709c	-0.120820254
97	0xbe51073d	-0.20412917
98	0xbe779286	-0.24176988
99	0xbe87dda6	-0.26536292
100	0xbe3c49c3	-0.18387513
101	0xbe0098fa	-0.12558356
102	0xbd38c50e	-0.0451098
103	0x3bf65e9c	0.0075186025
104	0x3d519f80	0.0511775
105	0xbdf20ade	-0.11818479
106	0x3d83c676	0.06434338
107	0xbe13835b	-0.14405577
108	0xbd8a133f	-0.06741952
109	0x3d8b287f	0.067948334
110	0xbce6a7fc	-0.028156273
111	0x3c8f2cce	0.01747742
112	0xbc90896e	-0.017643657
113	0xbc87fb27	-0.016599251
114	0x3cad705c	0.021171741
115	0x3be09910	0.006854184
116	0x3dac1e32	0.08404197
117	0xbddefe2b	-0.108883224
118	0xbd9d71c9	-0.076877184
119	0xbdad84ba	-0.08472581
120	0xbdc8aeec	-0.09798989
121	0xbe0c978a	-0.13729683
122	0xbebc520a	-0.3678134
123	0xbe95bbd6	-0.2924487
124	0xbebf6720	-0.37383366
125	0xbf0263d8	-0.509336
126	0xbec1182e	-0.3771376
127	0xbe01208d	-0.12610073
128	0x3cb6f46c	0.022333346
129	0xbd67bba5	-0.056575436
130	0xbe59d66e	-0.21273205
131	0x3d271bb0	0.04079789
132	0x3db290aa	0.08718999
133	0x3e158ad5	0.14603741
134	0x3e882c21	0.26596168
135	0x3cc208a9	0.02368577
136	0xbe31ef07	-0.17376338
137	0xbdc88bc3	-0.097922824
138	0xbdbea704	-0.093091995
139	0xbe0b2221	-0.13587238
140	0xbac91a60	-0.0015342943
141	0xbc9bd843	-0.01902402
142	0x3a245bc0	0.00062697753
143	0xbd626470	-0.055271566
144	0xbda33734	-0.079695135
145	0xbdea9b10	-0.11455357
146	0xbe0cea8b	-0.13761346
147	0x3d0b5375	0.034015138
148	0x3e4dfb82	0.20115474
149	0x3dfd2a40	0.12361574
150	0xbd5fa6c8	-0.054602414
151	0xbe04b22d	-0.12958594
152	0xbe5908ee	-0.21194813
153	0xbe87bf78	-0.26513267
154	0xbd78b699	-0.060721014
155	0x3ceb0c95	0.028692523
156	0xbd96b4ce	-0.073587045
157	0xbe9c6404	-0.30545056
158	0xbe8c630c	-0.27419317
159	0xbe88edf0	-0.26744032
160	0xbe803477	-0.25040027
161	0x3d837586	0.064189
162	0x3e202cc1	0.15642072
163	0xbc6634f8	-0.014050715
164	0xbd264ff8	-0.040603608
165	0xbdd2a886	-0.102860495
166	0xbe17f10a	-0.14838043
167	0xbe0ba131	-0.13635708
168	0xbb42cb00	-0.0029723048
169	0xbb64d4f3	-0.0034916967
170	0x3d0f560d	0.034994174
171	0xbbf8f367	-0.007597375
172	0xbdcea35f	-0.10089754
173	0xbd891073	-0.066925906
174	0xbe786314	-0.24256545
175	0xbd04885b	-0.0323566
176	0x3e02301d	0.12713666
177	0x3e186668	0.14882815
178	0x3dc11bfb	0.09429165
179	0x3e6492ee	0.22321674
180	0x3dbf9969	0.093554325
181	0xbd1c7571	-0.03819794
182	0x3d932caf	0.07186257
183	0xbcdd2444	-0.026994832
184	0xbc4c5820	-0.0124721825
185	0xbcf48069	-0.029846387
186	0xbdd8e59b	-0.10590669
187	0x3ca3905e	0.0199663
188	0xbd43577c	-0.047690853
189	0x3dacc4e7	0.08435994
190	0x3cd098db	0.025463512
191	0xbde1ffaa	-0.11035092
192	0xbdc19f65	-0.0945423
193	0xbe8c7cb9	-0.27438906
194	0x3cd71692	0.02625588
195	0x3d018058	0.03161654
196	0x3c4c1768	0.012456752
197	0x3da0618c	0.078311056
198	0x3db362d2	0.08759083
199	0x3d195c9c	0.037441835
200	0xbe2e04bf	-0.16993998
201	0xbe4c2a0b	-0.19937913
202	0xbe9a6217	-0.30152962
203	0xbe659a14	-0.22422057
204	0xbd1d7175	-0.03843828
205	0x3e2e05d6	0.16994414
206	0x3d98adc9	0.07455022
207	0x3d1a7737	0.03771135
208	0x3cb9be8f	0.022673873
209	0xbbb0ff6d	-0.005401543
210	0xbd555c78	-0.05209014
211	0xbe0b39bd	-0.13596244
212	0x3d192390	0.03738743
213	0x3de0c4f8	0.10975069
214	0x3ca8bc0e	0.020597484
215	0x3e2a00a9	0.16601814
216	0x3dba1706	0.090864226
217	0xbbebd029	-0.0071964455
218	0xbd081271	-0.033220712
219	0x3df6ac31	0.12044562
220	0xbd3c78f0	-0.046013772
221	0xbe1db914	-0.15402633
222	0x3d0c7dac	0.034299538
223	0x3bb555ca	0.0055339085
224	0xbcec91b5	-0.028878072
225	0x3dfb55ea	0.12272246
226	0x3e3885c9	0.18019785
227	0x3d892085	0.06695656
228	0xbdeafd76	-0.11474125
229	0xbe5a4742	-0.21316245
230	0xbe0e1bab	-0.13877742
231	0xbc6193f2	-0.013768183
232	0x3d975a80	0.073903084
233	0x3e0df207	0.13861857
234	0x3cb11ec2	0.021621112
235	0x3d5b8830	0.053596675
236	0xbd0c9dd5	-0.034330208
237	0xbe236dd6	-0.15959868
238	0xbd5f2fc5	-0.054488916
239	0xbda51e68	-0.0806244
240	0x3cc76789	0.024341362
241	0x3df7871a	0.120863155
242	0x3d663a87	0.05620816
243	0x3d22a5ae	0.039708786
244	0xbc7268cd	-0.014795494
245	0xbd6f154b	-0.058369916
246	0x3b34dc3d	0.0027597093
247	0xbc721e24	-0.014777694
248	0x3cc4ec88	0.024038568
249	0xbddc539a	-0.10758133
250	0xbd08e3fd	-0.03342055
251	0xbce66f03	-0.028129106
252	0x3d280b0f	0.04102617
253	0x3ddc2672	0.1074952
254	0x3e030def	0.12798284
255	0x3dd4d263	0.103916906

fc1.bias f4 [256]
0	0x3d1fed37	0.039044585
1	0xbd21a3b4	-0.03946276
2	0xbd170b0d	-0.036875773
3	0xbd43fe46	-0.047849916
4	0xbdb6cf9b	-0.08926316
5	0xbcfa8497	-0.030580802
6	0xbe0bbcb0	-0.13646197
7	0x3da4310f	0.0801717
8	0x3bb42be7	0.0054983976
9	0x3de0a2e7	0.10968571
10	0xbe18121b	-0.14850657
11	0x3d5d91d4	0.05409415
12	0xbdeffe4e	-0.11718427
13	0x3d2c1e97	0.04202136
14	0xbd473ff1	-0.048644964
15	0xbdeb5ad3	-0.11491933
16	0xbd1d87e3	-0.03845967
17	0xbd50d77a	-0.050986744
18	0xbe1273e0	-0.14302015
19	0x3d1aeeed	0.037825514
20	0x3c1c2b73	0.0095318435
21	0xbcf8a507	-0.030352129
22	0xbde1181f	-0.10990929
23	0x3c1a9869	0.0094357515
24	0x3d415c02	0.047206886
25	0xbca58ca8	-0.020208672
26	0xbe12cb70	-0.14335418
27	0x3d11f11c	0.03563033
28	0xbe24de93	-0.1610053
29	0xbdb4bbb9	-0.08824868
30	0xbe5db47a	-0.21650878
31	0xbd8548fa	-0.0650806
32	0x3d8fb540	0.070169926
33	0xbd1e5a4d	-0.038660336
34	0xba571c5a	-0.0008205824
35	0x3d7596e3	0.05995835
36	0xbcf90414	-0.030397452
37	0x3c2c7153	0.0105250655
38	0x3d857ad9	0.06517572
39	0xbda1194a	-0.07866152
40	0xbd65f712	-0.056143828
41	0xbdbc0534	-0.0918068
42	0xbd3ac49f	-0.04559767
43	0x3d2b2439	0.04178259
44	0x3d1047ba	0.035224654
45	0x3e0473f1	0.12934853
46	0xbc41b322	-0.011822494
47	0xbe06d720	-0.13168001
48	0x3d9fca8c	0.078023046
49	0x3c66c8e1	0.014085979
50	0xbd6f1ca7	-0.058376934
51	0xbe5960b1	-0.21228291
52	0x3e5ea582	0.21742824
53	0xbcc96f79	-0.024589287
54	0x3d120c61	0.035656337
55	0xbdcd8a02	-0.100360885
56	0x3d12825b	0.035768848
57	0x3aff4f27	0.0019478545
58	0xbdbe261e	-0.09284614
59	0x3c1d63fd	0.009606359
60	0xbe0637a4	-0.13107163
61	0xbc853825	-0.016262123
62	0xbd4c121c	-0.049821958
63	0xbd9f526d	-0.07779393
64	0x3d85b9fd	0.06529615
65	0xbddbbe69	-0.10729677
66	0x3d771593	0.06032331
67	0xbcbb13de	-0.022836622
68	0x3b149013	0.0022668883
69	0xbe06a556	-0.13149008
70	0x3d468f23	0.04847635
71	0xbd9558dd	-0.0729234
72	0xbd678371	-0.056521837
73	0xbd7b504d	-0.061355878
74	0xbd6127cd	-0.054969598
75	0xbd15e262	-0.03659285
76	0x3e43de55	0.19127782
77	0xbdb09c8c	-0.08623609
78	0x3e0825c5	0.13295658
79	0xbda4e267	-0.08050995
80	0xbbab7c39	-0.0052333144
81	0x3d0949d0	0.03351766
82	0x3d1d5458	0.038410515
83	0x3cb72375	0.022355774
84	0xbd3f15ed	-0.04665177
85	0xbd58bfd5	-0.05291732
86	0xbe38b527	-0.18037854
87	0xbda9b7f8	-0.082870424
88	0xbe12e86c	-0.14346474
89	0xbe13720c	-0.14398974
90	0x3c405aa2	0.011740359
91	0xbdc30d48	-0.095240176
92	0x3c4439f0	0.011976704
93	0xbce633ed	-0.028100932
94	0x3d525ab4	0.051356032
95	0x3cd66f2e	0.026176061
96	0x3d67a13e	0.056550257
97	0xbd986b12	-0.07442297
98	0xbe56d4b3	-0.20979576
99	0x3cad5857	0.021160288
100	0xbd93d9c1	-0.07219268
101	0xbd879e27	-0.06621962
102	0xbdc9e2f4	-0.09857741
103	0xbc9727c4	-0.018451579
104	0xbe056195	-0.13025506
105	0x3d71f5d7	0.05907234
106	0x3d9f7aa0	0.07787061
107	0xbdbff8dc	-0.09373638
108	0x3d5f4a07	0.054513957
109	0xbcb22989	-0.021748321
110	0x3d95ff16	0.073240444
111	0xbce3f61e	-0.027827319
112	0x3c5f0750	0.013612583
113	0x3c5ca97d	0.0134681435
114	0xbe12c67e	-0.14333531
115	0x3d07e534	0.03317757
116	0x3e723594	0.23653251
117	0xbcf16123	-0.029465264
118	0xbd5311c1	-0.051530603
119	0xbd80c3b1	-0.06287325
120	0xbd8427ae	-0.06452881
121	0xbe6526ae	-0.22378036
122	0x3d25b9d6	0.04046043
123	0xbd0a67b6	-0.033790313
124	0xbdaafc85	-0.083489455
125	0xbd935a2c	-0.07194933
126	0x3d1a32b3	0.037646007
127	0xbb9354c9	-0.004496191
128	0x3da897b7	0.08232062
129	0xbde27d86	-0.11059098
130	0xbc8dfd76	-0.017332774
131	0xbc20a50d	-0.009804976
132	0xbd67a1c8	-0.05655077
133	0xbdffab6a	-0.124838665
134	0xbd83aceb	-0.06429466
135	0xbd1f00ac	-0.038819
136	0xbe0f9149	-0.14020266
137	0x3c723471	0.014783011
138	0x3dddbba1	0.10826803
139	0xbca6a610	-0.020342857
140	0x3c035927	0.008016861
141	0x3d161da9	0.03664938
142	0x3dc6741a	0.09690113
143	0xbd6af092	-0.057358332
144	0xbd673440	-0.056446314
145	0xba3261dc	-0.00068047433
146	0x3d9c855b	0.07642623
147	0x3e083e74	0.13305074
148	0xbd265270	-0.040605962
149	0xbdeaf350	-0.114721894
150	0xbcc372b4	-0.023858406
151	0x3d0da642	0.034582384
152	0x3d3a2bfd	0.045452107
153	0xbdc42cb1	-0.09578837
154	0xbd5e8e5b	-0.05433498
155	0x3c52b77e	0.012861131
156	0x3d0357f9	0.03206632
157	0xbd045f5e	-0.03231751
158	0x3bb5b814	0.0055456255
159	0x3d2abf5d	0.041686404
160	0xbe08ea3f	-0.13370608
161	0xbdac23e6	-0.084052846
162	0xbe0b1999	-0.13583983
163	0xbe5aa4a6	-0.21351871
164	0xbd0e4d8c	-0.034741923
165	0xbab31b37	-0.0013664727
166	0xbda954eb	-0.0826815
167	0xbe07931f	-0.13239716
168	0xbdafffd2	-0.08593716
169	0xbd9064e1	-0.07050491
170	0xbdf7e486	-0.12104134
171	0xbc39f4c3	-0.01134986
172	0xbd47b2eb	-0.048754614
173	0xbdbdb401	-0.09262849
174	0xbd983262	-0.07431485
175	0xbd8d8871	-0.0691079
176	0x3cc2f3be	0.023797866
177	0xbc477d1e	-0.012175826
178	0xbded0d5e	-0.11574815
179	0xbe0955c7	-0.13411628
180	0xbbbb981d	-0.0057249204
181	0xbd8826b7	-0.06648009
182	0x3d7fb3a1	0.062427167
183	0xbc269883	-0.010168198
184	0x3e4f7599	0.20259704
185	0xbd58849f	-0.052860852
186	0xbd04e2dd	-0.032442916
187	0xbdbd3f9c	-0.09240648
188	0x3e1f9d55	0.15587361
189	0x3d7640e9	0.060120497
190	0xbd8f1b53	-0.069876336
191	0xbdbd2200	-0.092350006
192	0xbc8a1d77	-0.016859753
193	0xbd337336	-0.043811046
194	0xbdf816cf	-0.121137254
195	0x3e085a7a	0.13315764
196	0xbe0652c5	-0.13117512
197	0xbde39a54	-0.1111342
198	0x3af824ea	0.00189319
199	0xbe0a52ce	-0.1350815
200	0xbbeb3eba	-0.0071791084
201	0x3e212136	0.15735325
202	0xbdc521fa	-0.09625621
203	0xbe1a20d8	-0.15051591
204	0xbdd06654	-0.101757675
205	0xbcfe8783	-0.031070476
206	0x3e207add	0.15671869
207	0xbd3ace4d	-0.0456069
208	0x3dabd920	0.08391023
209	0xbd06bc15	-0.032894213
210	0x3d0453c9	0.032306466
211	0x3dd80c8a	0.10549267
212	0x3cced634	0.025248624
213	0xbdae2b42	-0.085043445
214	0x3e0f52e5	0.13996466
215	0x3de093dc	0.10965702
216	0xbd732e84	-0.059370533
217	0xbde3deae	-0.11126457
218	0xbd3fa584	-0.046788707
219	0xbd063498	-0.032765
220	0x3dd668ed	0.10469232
221	0xbc052a43	-0.008127752
222	0x3e105f10	0.14098763
223	0x3c0748fd	0.008257148
224	0xbc6931fc	-0.014233109
225	0x3c9449f3	0.018101668
226	0xbd925923	-0.07145908
227	0x3e1f243f	0.1554117
228	0x3d0be92f	0.034157928
229	0x3e396f1f	0.18108796
230	0x3c80c04e	0.015716698
231	0x3bf4cebb	0.0074709333
232	0x3e1a15a5	0.15047319
233	0xbcca9082	-0.02472711
234	0xbe33becf	-0.17553256
235	0xbcd9f616	-0.0266066
236	0xbcaef461	-0.021356763
237	0x3d6f2f19	0.058394525
238	0x3d633465	0.05546989
239	0xbd0c78cd	-0.034294892
240	0x3d296491	0.041355673
241	0xbb9efbc9	-0.0048517925
242	0xbd4eb9bf	-0.05047011
243	0xbdd8ca8d	-0.105855085
244	0xbd219243	-0.039446127
245	0x3dfe55c7	0.124187045
246	0xbcf76b21	-0.03020245
247	0xbe3ec2ef	-0.18629049
248	0xbd8ce2a0	-0.06879163
249	0xbd2d8c11	-0.042369906
250	0xbd16833b	-0.036746245
251	0xbcf6f28e	-0.030144956
252	0x3c9c9169	0.019112306
253	0x3e26e710	0.16299081
254	0xbd542237	-0.051790442
255	0xbdff47b0	-0.12464845

fc2.weight f4 [128, 256]
0	0x3d657a99	0.05602512
1	0xbf097357	-0.5369162
2	0xbd1451a9	-0.03621069
3	0x3dfd7d39	0.123774
4	0x3dde116b	0.10843166
5	0x3c6a754e	0.014310194
6	0x3da818ac	0.08207831
7	0xbcf08574	-0.02936051
8	0xbd240ee2	-0.040053256
9	0xbe162893	-0.14663915
10	0x3e2f9bd8	0.17149293
11	0xbde07eee	-0.1096171
12	0x3d869d50	0.06572974
13	0xbe7f0ae3	-0.24906497
14	0x3d8b4ee1	0.06802154
15	0x3de6279c	0.11238024
16	0xbd1a4d93	-0.037671637
17	0xbd6a8aa8	-0.05726114
18	0xbd14376a	-0.03618566
19	0x3d6a1adf	0.057154533
20	0x3dfd8946	0.123796985
21	0xbcfe7f88	-0.031066671
22	0x3d088cc0	0.033337355
23	0x3c8da2d6	0.01728956
24	0x3e2fa270	0.17151809
25	0x3cb39e0b	0.021925947
26	0x3e8a1c45	0.26974693
27	0xbe1a9c8c	-0.1509878
28	0x3d9abdf9	0.07555766
29	0x3e05122b	0.12995212
30	0x3dedae3c	0.11605498
31	0x3d638265	0.055544276
32	0x3e4fc4eb	0.20289962
33	0xbd5e4367	-0.0542635
34	0xbd0e4338	-0.034732074
35	0x3bf3897f	0.0074321623
36	0x3e16d66e	0.14730236
37	0xbbf936f0	-0.007605426
38	0x3e20704d	0.1566784
39	0x3c17a9c1	0.009256781
40	0x3d8e86cd	0.06959305
41	0x3e0625ed	0.13100405
42	0xbdef78b1	-0.11692942
43	0x3dab6827	0.08369475
44	0xbdea7679	-0.11448378
45	0x3c814d19	0.015783833
46	0xbc62c97c	-0.013841983
47	0xbe40ea7d	-0.1883945
48	0x3e4af28f	0.19819091
49	0x3e166e2d	0.14690466
50	0xbda679e4	-0.081287175
51	0xbc4e2e74	-0.0125843175
52	0x3e0b39ba	0.1359624
53	0xbc8b5d50	-0.017012268
54	0x3e787036	0.24261555
55	0xbc32ee85	-0.010921125
56	0x3db760f8	0.08954042
57	0x3d1d9368	0.038470656
58	0x3e8ef6e7	0.27922747
59	0xbd92c89f	-0.07167172
60	0x3e56c520	0.20973635
61	0x3ddde853	0.10835328
62	0x3b783cf0	0.0037878118
63	0x3e022efa	0.12713233
64	0x3d96de4c	0.073666185
65	0xbd98f38a	-0.074683264
66	0xbeaa14ee	-0.33219093
67	0xbe7c790a	-0.24655548
68	0xbeabd870	-0.33563566
69	0x3de20151	0.11035407
70	0x3ea7f932	0.32807308
71	0xbe6bb6d4	-0.23018962
72	0xbd8a9832	-0.0676731
73	0xbe3065c8	-0.17226326
74	0xbe8502a3	-0.25978574
75	0xbdf1fc5e	-0.11815713
76	0xbdd66449	-0.104683466
77	0x3d193557	0.037404384
78	0xbdc79609	-0.09745414
79	0xbe4257cb	-0.18978803
80	0x3d046cf2	0.03233046
81	0x3c92c288	0.017915025
82	0xbdfd8484	-0.12378791
83	0x3d92d2b7	0.07169097
84	0x3d63b013	0.05558784
85	0xbdbaf5ee	-0.091289386
86	0x3c11d317	0.008900425
87	0x3cba2a6c	0.022725306
88	0xbd81c0e5	-0.0633562
89	0xbdba2897	-0.09089773
90	0xbe475901	-0.19467546
91	0x3cb9e091	0.02269009
92	0xbcf8d661	-0.030375661
93	0x3dfaa711	0.12238897
94	0xbe18c8e1	-0.14920379
95	0x3e2d492f	0.16922449
96	0x3dd498cf	0.103807084
97	0xbdf019f4	-0.117237
98	0x3dca90a3	0.098908685
99	0x3e021d4c	0.12706488
100	0xbe1426ed	-0.14467974
101	0x3e279f2b	0.16369312
102	0xbcae52ff	-0.02127981
103	0xbc81fd43	-0.015867835
104	0x3e17f7e0	0.1484065
105	0xbe3d1153	-0.1846364
106	0xbed40afe	-0.41414636
107	0xbe35914f	-0.17731212
108	0xbc2fcc2f	-0.0107298335
109	0x3d06e5fc	0.032934174
110	0x3e4a5e6c	0.19762582
111	0xbd025b24	-0.0318252
112	0x3d4d66db	0.05014692
113	0x3e02860e	0.1274645
114	0x3cdcc61a	0.026949931
115	0xbb79ef9e	-0.0038137208
116	0xbe98cae5	-0.29842296
117	0x3cae61e5	0.021286914
118	0xbe84bcb7	-0.25925228
119	0x3ba88553	0.0051428466
120	0xbdc1ea2b	-0.09468492
121	0xbbfd31e2	-0.0077268938
122	0x3db799d0	0.08964884
123	0xbe1fa0bc	-0.15588659
124	0x3e263cd5	0.16234143
125	0x3e8fe2a5	0.28102604
126	0xbe1afa2d	-0.15134497
127	0xbc1a5e91	-0.00942196
128	0xbc8bf24f	-0.017083315
129	0x3cb20b0a	0.02173378
130	0x3ed6f5ca	0.41984397
131	0xbe5885dd	-0.21144815
132	0xbe6cfe77	-0.23143946
133	0x3cd9645c	0.026537113
134	0x3d2d6b51	0.042338673
135	0x3bc17b55	0.005904595
136	0xbd1c5df5	-0.038175542
137	0x3df59e42	0.11993076
138	0xbe0908ac	-0.13382214
139	0x3d41afa7	0.047286656
140	0x3e959f61	0.2922316
141	0xbe6767fc	-0.2259826
142	0xbe68b886	-0.2272664
143	0xbde23929	-0.11046059
144	0x3de9436b	0.11389812
145	0xbd9af96b	-0.07567104
146	0x3e9bbce1	0.3041754
147	0xbe0620f1	-0.13098504
148	0xbe163b3d	-0.14671035
149	0x3eb0fe63	0.34569082
150	0x3df60807	0.1201325
151	0x3d86a56d	0.06574521
152	0x3d1e5cbb	0.038662653
153	0xbd41ede6	-0.04734602
154	0x3d7ee543	0.06223036
155	0xbcb9fa74	-0.022702433
156	0xbc83bb6a	-0.016080577
157	0x3c5aa6ac	0.013345402
158	0x3def4f59	0.11685056
159	0xbead8d8a	-0.33897048
160	0xbe51b3f4	-0.20478803
161	0xbde00306	-0.10938077
162	0x3da09a6e	0.07841955
163	0xbeb08c92	-0.34482247
164	0x3d5862ae	0.052828483
165	0x3e4d11d6	0.20026335
166	0x3dda3e9f	0.10656475
167	0xbe4ee086	-0.20202836
168	0x3d09054e	0.033452325
169	0x3e128f4a	0.14312473
170	0xbe95b36f	-0.2923846
171	0xbcd322c5	-0.025773415
172	0xbd2720d8	-0.040802807
173	0xbcf69dc6	-0.03010453
174	0xbd86ca33	-0.06581535
175	0x3e35ef29	0.17767014
176	0xbe30b9cc	-0.17258376
177	0x3e0aa2c7	0.13538657
178	0xbd2cba7c	-0.042170033
179	0x3d6f1b16	0.05837544
180	0xbcc48132	-0.023987386
181	0x3bdd8e14	0.006761322
182	0x3d828509	0.06373031
183	0xbe0eac01	-0.13932802
184	0xbdb75b19	-0.089529224
185	0xbe138010	-0.1440432
186	0x3dea9839	0.114548154
187	0xbe8ccab5	-0.27498403
188	0xbdd890ad	-0.1057447
189	0x3c7f0ca9	0.015566983
190	0xbde7b1bc	-0.11313197
191	0xbc0df5f8	-0.008664601
192	0x3e14af12	0.14519909
193	0xbb89c94d	-0.004204905
194	0x3d557fac	0.05212371
195	0xbe2c44a4	-0.1682306
196	0x3d3a261b	0.045446496
197	0xbd1ce4d8	-0.03830418
198	0x3e11b1a7	0.14227925
199	0xbd23bb4c	-0.039973542
200	0x3cdd915d	0.027046854
201	0x3db48927	0.08815222
202	0x3b6e6e47	0.0036381648
203	0x3d0fb12e	0.03508108
204	0x3e585182	0.21124843
205	0xbe91d02a	-0.2847913
206	0xbe81321f	-0.25233552
207	0x3de481a4	0.111575395
208	0xbd970db3	-0.0737566
209	0xbcdc77c5	-0.02691258
210	0x3de5de8c	0.11224088
211	0x3d245182	0.040116794
212	0xbced2a46	-0.028950822
213	0xbd429932	-0.04750938
214	0xbde57fc0	-0.11206007
215	0x3e24807d	0.1606464
216	0x3d39b2e5	0.045336623
217	0xbe56cb4d	-0.2097599
218	0xbd074224	-0.03302206
219	0xbca3665e	-0.019946273
220	0xbcbe02e1	-0.023194732
221	0x3c16ed10	0.009211794
222	0x3eed30f9	0.46326426
223	0x3d841e34	0.06451073
224	0x3de43d69	0.111445256
225	0x3d4fdb5b	0.050746303
226	0x3da46f03	0.08028986
227	0xbe8258bb	-0.2545832
228	0x39e26d74	0.00043187628
229	0xbcc2c308	-0.023774639
230	0xbce02b9c	-0.027364545
231	0xbe4096f5	-0.18807586
232	0xbd981897	-0.07426565
233	0x3c4f9dc8	0.012671895
234	0xbe0c72f1	-0.13715722
235	0x3cc16240	0.02360642
236	0x3b40d559	0.002942404
237	0x3cbec842	0.02328885
238	0xbb23bd5c	-0.0024984693
239	0xbe89217f	-0.26783368
240	0xbe9661f0	-0.29371595
241	0x3d904938	0.07045215
242	0xbd8c4b2b	-0.06850275
243	0xbe2c2614	-0.168114
244	0xbdc5ba9a	-0.09654732
245	0x3b89c557	0.004204433
246	0xbda941e3	-0.0826452
247	0xbe43ac3c	-0.19108671
248	0xbe89f87d	-0.26947394
249	0xbcb80d54	-0.022467293
250	0xbdd282a4	-0.10278824
251	0xbc5416da	-0.012944901
252	0xbe9597d1	-0.2921739
253	0xbd7d8cb3	-0.06190176
254	0x3e71c8f9	0.23611821
255	0xbaf68775	-0.001880868

fc2.bias f4 [128]
0	0x3d9d8ba1	0.07692648
1	0xbe15ad3b	-0.14616863
2	0x3e821869	0.25409248
3	0xbdb897fe	-0.09013365
4	0xbda39cb2	-0.07988872
5	0x3d1953ae	0.03743332
6	0xbbdde877	-0.0067720967
7	0xbe5ffc74	-0.21873647
8	0xbde04787	-0.10951143
9	0x3d97a507	0.07404523
10	0xbe2b0781	-0.16702081
11	0x3c23c6af	0.0099961
12	0xbcec63fc	-0.02885627
13	0xbc4c59b2	-0.012472557
14	0x3e9c164f	0.3048577
15	0xbdac0fec	-0.08401474
16	0x3df3c267	0.11902314
17	0x3c216dd3	0.009852844
18	0xbd646bb4	-0.055766776
19	0xbd834059	-0.06408758
20	0x3e1b0e05	0.15142067
21	0xbd85f886	-0.06541543
22	0x3d7d695e	0.061868064
23	0x3bd06d9b	0.0063607222
24	0x3bea383e	0.007147818
25	0xbd50ff5f	-0.05102479
26	0xbe4880ab	-0.19580333
27	0x3e339d6e	0.17540523
28	0x3e51503a	0.2044076
29	0xbdb14720	-0.08656144
30	0xbdf0e55d	-0.117624976
31	0xbce82ac8	-0.028340712
32	0xbccb1f3c	-0.024795167
33	0x3cd110fa	0.02552079
34	0xbe028947	-0.1274768
35	0x3e0e6d84	0.13908964
36	0xbd5f7372	-0.054553457
37	0xbe02f8c6	-0.12790212
38	0x3e24ff6c	0.1611306
39	0x3d85ea47	0.065388255
40	0x3b2caaf4	0.0026347013
41	0xbd27eedb	-0.040999275
42	0x3e64cf31	0.22344662
43	0x3dde75b6	0.10862295
44	0xbdbb7c96	-0.09154622
45	0xbe063eae	-0.13109848
46	0x3e0e2bb9	0.13883866
47	0x3e11e970	0.14249206
48	0xbd0e2a5d	-0.03470837
49	0xbe1ed3a6	-0.15510425
50	0x3e82bf73	0.2553669
51	0x3e255c12	0.16148403
52	0x3d2ca9d8	0.042154163
53	0xbd1b883f	-0.03797173
54	0xbdf0ea26	-0.1176341
55	0xbe489d93	-0.1959136
56	0x3d9fe96d	0.07808194
57	0xbe24c2d4	-0.16089946
58	0xbcdc492d	-0.026890362
59	0xbd040546	-0.03223159
60	0x3da931ea	0.082614735
61	0xbd5087ba	-0.05091069
62	0xbe011258	-0.12604654
63	0xbe9dfb4e	-0.30855793
64	0xbbcaca59	-0.0061886725
65	0x3e431641	0.19051458
66	0xbe8142e8	-0.25246358
67	0xbcbf4d9a	-0.023352433
68	0xbd4a1155	-0.049332935
69	0xbdb71480	-0.08939457
70	0xbda8607e	-0.082215294
71	0x3e9b439a	0.30325013
72	0x3d03dee2	0.03219498
73	0xbe628d1f	-0.22124146
74	0x3e33c467	0.1755539
75	0x3cede39d	0.029039199
76	0xb998fd09	-0.00029180225
77	0x3e4d1a47	0.20029555
78	0xbd9070a9	-0.07052738
79	0x3c46711f	0.012111931
80	0xbd086ae8	-0.03330508
81	0xbe3077ae	-0.17233154
82	0xbe6f396c	-0.23361748
83	0xbbdac1d1	-0.0066759367
84	0xbe1b958a	-0.15193763
85	0xbe80f37a	-0.25185758
86	0xbd41d8c4	-0.047325864
87	0xbe035397	-0.12824856
88	0x3ed33c40	0.41256905
89	0xbde29933	-0.11064377
90	0x3da2fdde	0.079585776
91	0xbd805015	-0.062652744
92	0xbd1225c8	-0.035680562
93	0x3e8df5e8	0.27726674
94	0xbe050856	-0.12991461
95	0xbd9c9499	-0.0764553
96	0x3d8d3ca2	0.068963304
97	0x3dc03af1	0.09386242
98	0xbd5c8ab6	-0.053843223
99	0xbe1554b5	-0.14583094
100	0x3e780e52	0.24224213
101	0x3e372879	0.17886533
102	0x3d4dcbc5	0.050243158
103	0x3dd1f8bc	0.102525204
104	0x3e571bb8	0.21006668
105	0xbdc2f7cd	-0.095199205
106	0xbb95f72c	-0.0045765843
107	0xbe083975	-0.13303168
108	0xbd55ddfc	-0.052213654
109	0xbd99e87f	-0.07515048
110	0xbe9ecec8	-0.31017137
111	0xbdcd3255	-0.10019366
112	0xbe1d54ab	-0.1536433
113	0xbe211e9f	-0.15734337
114	0xbd934c94	-0.071923405
115	0xbe8f5018	-0.27990794
116	0x3e9043dc	0.28176773
117	0xbd12626f	-0.035738405
118	0xbb033c00	-0.0020024776
119	0xbdc7b296	-0.097508594
120	0x3e352721	0.17690708
121	0x3e960d29	0.29306915
122	0xbd0a06c1	-0.033697847
123	0x3d28da4b	0.041223805
124	0x3e8c60d1	0.27417615
125	0x3ddfb0b4	0.10922375
126	0x3e539536	0.20662388
127	0x3d9d83ea	0.07691176

fc3.weight f4 [10, 128]
0	0x3d97a5f1	0.07404698
1	0xbe810627	-0.25200006
2	0x3cc9ade7	0.024619056
3	0xbe9bddde	-0.3044271
4	0xbe81d991	-0.25361302
5	0x3d9cb18a	0.076510504
6	0x3e0bde26	0.13658962
7	0x3d8b286e	0.06794821
8	0xbeafa37a	-0.3430441
9	0x3d28177e	0.04103803
10	0xbeaae8a8	-0.33380628
11	0x3d23377e	0.039847843
12	0x3e010e1a	0.12603036
13	0xbe20bfba	-0.15698138
14	0xbd1de0af	-0.038544353
15	0x3e33dd51	0.17564894
16	0x3d9a7786	0.075423285
17	0x3d84ffce	0.06494103
18	0x3e1a94ac	0.15095776
19	0xbea341cf	-0.31886145
20	0xbcdb65f6	-0.026782017
21	0x3dd50f9f	0.1040337
22	0x3e057833	0.13034134
23	0xbe0f3105	-0.13983543
24	0xbeafeb50	-0.34359217
25	0x3e41ca89	0.18924917
26	0xbeaf4608	-0.34233117
27	0x3be4ac2b	0.006978532
28	0xbed895fa	-0.42301923
29	0x3dbcf928	0.0922721
30	0xbd62245d	-0.05521046
31	0x3e1b6dc1	0.15178587
32	0x3e18b33c	0.14912122
33	0xbe42ff7e	-0.19042775
34	0x3abb8299	0.0014305889
35	0xbe15861a	-0.14601937
36	0xbe934252	-0.28761536
37	0x3d44d26e	0.048052244
38	0xbdda9710	-0.10673344
39	0xbca59f34	-0.020217516
40	0xbe73f4ed	-0.238239
41	0xbdc31966	-0.09526329
42	0x3e0a2748	0.13491547
43	0x3e1c0f41	0.15240194
44	0xbee4fbb0	-0.44723272
45	0x3e2b1bff	0.16709898
46	0xbe129608	-0.14315045
47	0xbe0f6b74	-0.14005834
48	0xbc894879	-0.01675819
49	0x3bccdaad	0.006251654
50	0x3c19277e	0.009347795
51	0x3d11260f	0.035436686
52	0xbe07773b	-0.13229077
53	0x3e08ac03	0.13346867
54	0xbd8574f4	-0.06516448
55	0x3d6e9f6c	0.058257505
56	0xbf0029b8	-0.5006366
57	0xbdbf2803	-0.093338035
58	0xbe556a66	-0.20841369
59	0xbe0916d4	-0.13387614
60	0xbb870ecf	-0.0041216384
61	0xbee88f34	-0.45421755
62	0xbe78c4fa	-0.2429389
63	0x3dd8a001	0.10577393
64	0xbe1a4b27	-0.15067731
65	0x3a3fd610	0.00073179696
66	0xbd8b9fe7	-0.06817608
67	0xbeb2531d	-0.34829035
68	0xbe1d4f68	-0.15362322
69	0x3d0ab261	0.03386152
70	0xbddbc3db	-0.10730716
71	0x3dc92ae1	0.098226316
72	0xbe9ca376	-0.3059346
73	0xbe189454	-0.14900333
74	0x3d7851e4	0.060624972
75	0x3d87063b	0.06592985
76	0x3d9bd29b	0.07608529
77	0xbd6863f8	-0.056735963
78	0xbeb9ea45	-0.36311546
79	0xbd7b5c32	-0.06136722
80	0xbd108f4d	-0.035292912
81	0xbef5bf69	-0.47997597
82	0x3e232a68	0.15934145
83	0xbe2fcff1	-0.17169167
84	0xbe76c7e2	-0.24099687
85	0xbea7735b	-0.32705197
86	0xbdf434fe	-0.1192417
87	0xbf3a500c	-0.7277839
88	0x3e369988	0.17832005
89	0x3c9bfcc1	0.01904142
90	0xbe57e6ca	-0.21084133
91	0x3d8c28a2	0.068436876
92	0x3e1f4cb8	0.1555661
93	0xbe4d0fe7	-0.20025598
94	0xbe1631b7	-0.14667402
95	0xbdeccb7c	-0.11562249
96	0x3ded8396	0.11597364
97	0x3cac6441	0.021043899
98	0xbecbcb55	-0.39803568
99	0xbe9c2b92	-0.30501992
100	0x3e2902a6	0.16504917
101	0xbe39694c	-0.18106574
102	0xbd3a8819	-0.04553995
103	0xbe9a6745	-0.30156913
104	0xbe49542c	-0.19661015
105	0x3d01aebe	0.031660788
106	0xbe9560a7	-0.29175302
107	0xbe437325	-0.19086893
108	0x3e0b099b	0.13577883
109	0xbe1cc49e	-0.15309379
110	0xbe05b358	-0.13056695
111	0xbe03efc9	-0.1288444
112	0xbeb15748	-0.34636903
113	0xbe736a8c	-0.23771113
114	0x3dbb3f54	0.09142938
115	0xbe0614e8	-0.13093913
116	0xbd95d164	-0.07315329
117	0xbea4ccb0	-0.32187414
118	0xbeb94a2c	-0.361894
119	0x3e057e20	0.13036394
120	0x3b9b821c	0.004745735
121	0x3c2c8a85	0.0105310725
122	0xbe7556ee	-0.23958942
123	0xbd70d78e	-0.05879932
124	0x3ddf3c99	0.1090023
125	0x3e007b82	0.12547114
126	0x3dee6577	0.11640447
127	0x3dc5e1f4	0.09662238
128	0xbe958138	-0.2920015
129	0xbe879548	-0.2648108
130	0x3d0f5757	0.034995403
131	0x3e170a2c	0.14749974
132	0x3d165d47	0.03671005
133	0xbeab94fc	-0.33512104
134	0x3e477e39	0.19481744
135	0xbe814010	-0.25244188
136	0x3d7ba262	0.061434157
137	0x3d27a412	0.040927954
138	0x3e46197e	0.19345662
139	0xbdff8708	-0.12476927
140	0x3d4f9b5f	0.050685283
141	0xbdffd2b3	-0.124913596
142	0xbe892b36	-0.2679078
143	0xbe4d1cf6	-0.20030579
144	0xbe9db571	-0.3080249
145	0xbe09ec0a	-0.13468948
146	0xbe952eb6	-0.291372
147	0x3db526d9	0.088453
148	0xbe82a49d	-0.25516215
149	0xbe7200cf	-0.23633121
150	0xbeb8f9c5	-0.3612806
151	0x3cfd3a34	0.030911542
152	0xbee7494d	-0.45173112
153	0x3d5205bc	0.051275
154	0x3e009bb1	0.12559392
155	0xbebda768	-0.37041783
156	0xbdf7f9be	-0.121081814
157	0xbe3fc65b	-0.1872801
158	0x3d71bc78	0.05901763
159	0xbe87702d	-0.2645277
160	0xbea922ac	-0.33034265
161	0x3e39c10a	0.18140045
162	0xbe4f79b6	-0.20261273
163	0x3d09c3d0	0.033634007
164	0xbca8fad8	-0.020627424
165	0xbde433ba	-0.111426786
166	0x3d42b1b1	0.04753274
167	0xbdb9c659	-0.09071035
168	0xbe4e7a3b	-0.20163815
169	0x3e44e6cf	0.19228671
170	0xbd26028d	-0.040529776
171	0xbe193f1e	-0.14965484
172	0x3b4a19c7	0.0030838118
173	0xbe0cf044	-0.13763529
174	0xbdcae219	-0.09906406
175	0x3e027729	0.12740768
176	0xbda4d8bf	-0.080491535
177	0x3ddb90d1	0.10720981
178	0x3dc7bde4	0.09753016
179	0xbe3f89eb	-0.18704955
180	0xbe2b710c	-0.16742343
181	0xbe9ad7e2	-0.3024283
182	0xbd13c846	-0.036079668
183	0x3ca3729c	0.019952111
184	0xbe063be7	-0.13108788
185	0xbd517f94	-0.05114706
186	0xbe50151b	-0.20320551
187	0xbe5e1c4d	-0.21690483
188	0xbe7d17f6	-0.24716172
189	0x3da0513f	0.078279965
190	0x3e381350	0.17976117
191	0x3e3c93a6	0.18415698
192	0xbda88ed0	-0.08230364
193	0xbd24aaa5	-0.0402018
194	0x3dadc0c6	0.08484034
195	0x3d90e367	0.070746236
196	0xbd73eba2	-0.05955089
197	0xbe89709f	-0.26843736
198	0xbe9c9866	-0.3058502
199	0xbdd629f4	-0.10457221
200	0x3d804f18	0.06265086
201	0x3e0371c9	0.12836374
202	0xbda5dc4d	-0.0809866
203	0x3d81f9ec	0.06346497
204	0xbea44975	-0.32087293
205	0x3e42d0db	0.19024985
206	0x3de010dd	0.109407164
207	0xbe060ea2	-0.1309152
208	0xbc238f2a	-0.009982863
209	0xbe692004	-0.22766119
210	0x3e4491ac	0.19196194
211	0x3c9972ca	0.018731494
212	0x3d0b1a32	0.03396053
213	0x3dde09fd	0.10841749
214	0xbcaa3909	-0.02077915
215	0x3db2f1ec	0.08737549
216	0xbe9c3b75	-0.30514112
217	0xbd840f49	-0.06448228
218	0x3db2772f	0.08714139
219	0x3de55147	0.11197143
220	0xbbf099f1	-0.00734257
221	0x3dece073	0.11566248
222	0xbe4af796	-0.19821009
223	0x3d9bdc54	0.07610384
224	0xbd9ad80b	-0.07560738
225	0x3d92a617	0.071605854
226	0xbe4b948d	-0.19880886
227	0x3dc13637	0.09434169
228	0x3db4f30c	0.0883542
229	0xbd823496	-0.06357686
230	0xbe5e680d	-0.2171938
231	0xbef4dc77	-0.4782445
232	0xbe975205	-0.29554763
233	0xbe0b2235	-0.13587268
234	0x3dd478f2	0.10374631
235	0xbdd90a72	-0.105976954
236	0xbe2145b8	-0.15749252
237	0x3deddde5	0.11614589
238	0x3ddd6e09	0.10812003
239	0xbde253c3	-0.110511325
240	0x3d66796d	0.056268144
241	0xbe9c7c4e	-0.30563587
242	0xbe4df442	-0.20112708
243	0x3e89d40e	0.26919597
244	0xbeabc6d6	-0.33550137
245	0xbddaba0d	-0.106800176
246	0x3de8162d	0.11332355
247	0x3d6e59ab	0.058190983
248	0xbe66c635	-0.22536547
249	0xbde7b7a4	-0.113143235
250	0x3dd9204e	0.10601865
251	0xbe9b9b29	-0.30391815
252	0xbe108f30	-0.14117122
253	0xbeb24a28	-0.34822202
254	0xbce2dfda	-0.027694631
255	0x3e0e6a9c	0.13907856

fc3.bias f4 [10]
0	0xbc6b6546	-0.014367407
1	0xbe19025c	-0.14942306
2	0xbd9c9430	-0.07645452
3	0xbe6aa508	-0.22914517
4	0xbc09159a	-0.008366967
5	0xbca740dd	-0.020416671
6	0xbd802fd0	-0.062591195
7	0xbe3c013b	-0.18359844
8	0x3eee187b	0.46503052
9	0x3dc77fdd	0.09741185
